…
rNorm.bias', 'item_encoder.layer.3.filterlayer.complex_weight', 'item_encoder.layer.3.filterlayer.LayerNorm.weight', 'item_encoder.layer.3.filterlayer.LayerNorm.bias', 'item_encoder.layer.3.intermediate.dense_1.weight', 'item_encoder.layer.3.intermediate.dense_1.bias', 'item_encoder.layer.3.intermediate.dense_2.weight', 'item_encoder.layer.3.intermediate.dense_2.bias', 'item_encoder.layer.3.intermediate.LayerNorm.weight', 'item_encoder.layer.3.intermediate.LayerNorm.bias'])
Load model from ./FMLP/output/FMLPRec-Movie_and_TV_GT5-Dec-06-2022_04-29-08.pt for test!
FMLPRecModel(
  (item_embeddings): Embedding(7361, 64, padding_idx=0)
  (position_embeddings): Embedding(50, 64)
  (LayerNorm): LayerNorm()
  (dropout): Dropout(p=0.5, inplace=False)
  (item_encoder): Encoder(
    (layer): ModuleList(
      (0): Layer(
        (filterlayer): FilterLayer(
          (out_dropout): Dropout(p=0.5, inplace=False)
          (LayerNorm): LayerNorm()
        )
        (intermediate): Intermediate(
          (dense_1): Linear(in_features=64, out_features=256, bias=True)
          (dense_2): Linear(in_features=256, out_features=64, bias=True)
          (LayerNorm): LayerNorm()
          (dropout): Dropout(p=0.5, inplace=False)
        )
      )
      (1): Layer(
        (filterlayer): FilterLayer(
          (out_dropout): Dropout(p=0.5, inplace=False)
          (LayerNorm): LayerNorm()
        )
        (intermediate): Intermediate(
          (dense_1): Linear(in_features=64, out_features=256, bias=True)
          (dense_2): Linear(in_features=256, out_features=64, bias=True)
          (LayerNorm): LayerNorm()
          (dropout): Dropout(p=0.5, inplace=False)
        )
      )
      (2): Layer(
        (filterlayer): FilterLayer(
          (out_dropout): Dropout(p=0.5, inplace=False)
          (LayerNorm): LayerNorm()
        )
        (intermediate): Intermediate(
          (dense_1): Linear(in_features=64, out_features=256, bias=True)
          (dense_2): Linear(in_features=256, out_features=64, bias=True)
          (LayerNorm): LayerNorm()
          (dropout): Dropout(p=0.5, inplace=False)
        )
      )
      (3): Layer(
        (filterlayer): FilterLayer(
          (out_dropout): Dropout(p=0.5, inplace=False)
          (LayerNorm): LayerNorm()
        )
        (intermediate): Intermediate(
          (dense_1): Linear(in_features=64, out_features=256, bias=True)
          (dense_2): Linear(in_features=256, out_features=64, bias=True)
          (LayerNorm): LayerNorm()
          (dropout): Dropout(p=0.5, inplace=False)
        )
      )
    )
  )
)
{'Epoch': 0, 'HIT@1': '0.3107', 'NDCG@1': '0.3107', 'HIT@5': '0.6997', 'NDCG@5': '0.5138', 'HIT@10': '0.8663', 'NDCG@10': '0.5680', 'MRR': '0.4834'}
FMLPRec-Movie_and_TV_GT5-Dec-07-2022_02-43-14
{'Epoch': 0, 'HIT@1': '0.3107', 'NDCG@1': '0.3107', 'HIT@5': '0.6997', 'NDCG@5': '0.5138', 'HIT@10': '0.8663', 'NDCG@10': '0.5680', 'MRR': '0.4834'}
